data.pth (torch, 8042 bytes, 6 tensors)

l1.weight f4 [8, 112]
0.04065536 0.021034237 0.21409681 0.7211479 -0.24820864 0.58311844 -0.11386296 0.72483075
-0.648518 -0.19271223 0.34393543 0.59219944 -0.13652118 -0.19700396 0.3892883 0.5898511
0.46471027 0.10688616 -0.06765434 -0.2093077 -0.37821546 -0.157634 -0.046343815 0.39443436
0.04917615 0.08091968 -0.51924086 0.59084356 -0.14559685 0.20554209 0.53171724 0.594954
0.34471232 -0.32723287 -0.43406427 -0.17001121 0.5276196 0.6876694 -0.24257076 -0.44027433
0.063090324 -0.44023544 -0.44043326 -0.4402948 -0.60170674 0.4310263 0.6983076 -0.45420307
0.6139148 -0.063387826 -0.22388199 0.55072224 0.1830048 0.43620244 0.08669864 0.1654231
-0.082612455 0.7578595 0.44487742 0.4849971 -0.4555596 -0.06617322 -0.20100486 0.7826041
-0.23540127 -0.4619405 -0.09463197 -0.14957951 -0.5259597 0.7860032 0.38376188 -0.4089156
0.6121068 -0.112301886 -0.44279316 -0.2812454 0.05363379 0.86251026 -0.2716942 -0.27959883
0.5453887 0.65059674 -0.3392519 -0.19606277 0.5294823 -0.119586565 -0.27722725 0.6501762
0.35107347 0.56001854 -0.30846283 -0.17413318 -0.46040076 0.1011826 0.5531168 0.41296473
-0.022780294 0.8868148 0.6174262 -0.2754478 -0.22122253 -0.07332058 0.5426277 -0.20176788
0.5939839 1.0465128 -0.039423905 -0.29382226 0.06897569 -0.031592913 0.48034486 0.4726483
0.007924265 -0.087552525 0.035823572 -0.07225129 -0.021606665 0.081098825 -0.026716722 -0.083084375
0.00913874 0.050965026 0.065903105 -0.02914647 -0.017829884 0.05869262 -0.07029707 0.028416516
-0.017267654 0.0045016664 0.05606811 0.0256532 -0.060907274 0.0884966 0.042637784 -0.033210512
-0.022561554 -0.08273367 0.09038309 -0.081911586 0.08744476 -0.03737076 -0.043101057 0.08070055
-0.024550432 -0.044278022 -0.07817654 0.021647362 -0.03516759 0.016588803 0.012237211 0.0635328
-0.05882851 0.055780884 0.03999434 -0.0017513157 -0.04197352 -0.06328026 -0.07554465 0.02619822
-0.00030331162 0.04373074 0.0007055569 -0.04562832 0.047232606 0.081770964 -0.041597974 0.048117306
-0.038489446 0.03694274 -0.080652036 0.06769851 0.07110193 -0.0012397737 -0.07706218 0.07944961
0.0049264175 0.067743465 -0.078784265 0.036035575 0.03792311 -0.007181897 0.052384004 -0.0911627
0.023102203 -0.0056495913 -0.0066364836 -0.006681011 -0.09232909 0.031617526 -0.05670445 0.08789321
-0.00045805945 0.070163265 -0.05083596 -0.087709345 0.042504065 -0.063606225 0.039596602 0.06480358
-0.07881615 -0.05441939 0.031732228 0.033611685 -0.009495286 -0.047086317 -0.07301745 -0.038257536
-0.04002115 0.020013476 -0.05152997 -0.08532957 -0.0072295447 0.04353846 -0.06009882 -0.04188283
-0.0036124464 -0.0040260344 0.06019994 0.06278514 -0.05905012 -0.005525888 -0.08404153 -0.05794616
-0.1844332 0.75811833 0.27857932 0.1009279 -0.101886936 -0.5217509 0.6378137 -0.60206705
-0.4346055 0.71620595 0.06507677 -0.15941258 0.6320155 0.07427544 0.37566015 -0.39445424
-0.081314996 0.5403 0.45300546 0.6642924 0.60760367 -0.6417129 -0.28842804 -0.092930585
0.5580329 -0.091445476 0.55213904 -0.23883687 0.5739646 0.2556346 0.3865316 -0.42610136
00000000: 3c86 263d fe4f ac3c 323c 5b3e 269d 383f
00000010: 682a 7ebe 4047 153f fc30 e9bd 828e 393f
00000020: 4705 26bf 5b56 45be 4e18 b03e 629a 173f
00000030: 35cc 0bbe 68bb 49be cc50 c73e 7b00 173f
00000040: 81ee ed3e 22e7 da3d 5c8e 8abd c254 56be
00000050: 75a5 c1be cf6a 21be 03d3 3dbd 4df3 c93e
00000060: ee6c 493d 38b9 a53d f8ec 04bf 8641 173f
00000070: 5717 15be a079 523e 9f1e 083f e84e 183f
00000080: 227e b03e 118b a7be ac3d debe 6b17 2ebe
00000090: 1412 073f 1a0b 303f 7864 78be a36b e1be
000000a0: 8035 813d 8a66 e1be 7880 e1be 526e e1be
000000b0: 7409 1abf 7baf dc3e 49c4 323f 4e8d e8be
000000c0: 8529 1d3f 7ad1 81bd 5241 65be 22fc 0c3f
000000d0: 9c65 3b3e ed55 df3e 0e8f b13d ac64 293e
000000e0: b830 a9bd 1503 423f f9c6 e33e 8a51 f83e
000000f0: 1c3f e9be d385 87bd 38d4 4dbe be58 483f
00000100: 080d 71be 7783 ecbe 68ce c1bd 5f2b 19be
00000110: 4ba5 06bf 8137 493f 707c c43e 635d d1be
00000120: 08b3 1c3f 88fe e5bd c9b5 e2be 66ff 8fbe
00000130: 1baf 5b3d 79cd 5c3f 811b 8bbe 9427 8fbe
00000140: 989e 0b3f 828d 263f 6db2 adbe aec4 48be
00000150: 278c 073f cde9 f4bd bbf0 8dbe f371 263f
00000160: e7bf b33e 605d 0f3f d7ee 9dbe f84f 32be
00000170: a6b9 ebbe d338 cf3d 1099 0d3f 1d70 d33e
00000180: bd9d babc 4b06 633f a50f 1e3f 7e07 8dbe
00000190: 2988 62be 1a29 96bd a6e9 0a3f 3d9c 4ebe
000001a0: 540f 183f 22f4 853f f67a 21bd df6f 96be
000001b0: 2043 8d3d 9267 01bd c3ef f53e f5fe f13e
000001c0: c7d4 013c bd4e b3bd bdbb 123d 7cf8 93bd
000001d0: 7600 b1bc 2417 a63d 07dd dabc 2428 aabd
000001e0: a7ba 153c b4c0 503d 35f8 863d 94c4 eebc
000001f0: fa0f 92bc ac67 703d e9f7 8fbd c1c9 e83c
00000200: e574 8dbc b782 933b ada7 653d a926 d23c
00000210: e879 79bd b53d b53d f5a4 2e3d bf07 08bd
00000220: 02d3 b8bc 4570 a9bd c51a b93d 43c1 a7bd
00000230: 3d16 b33d 1512 19bd bc8a 30bd 5446 a53d
00000240: fd1d c9bc df5c 35bd 061b a0bd cf55 b13c
00000250: e40b 10bd 3ee5 873c 957e 483c 7c1d 823d
00000260: 2af6 70bd 7f7a 643d 1bd1 233d 678c e5ba
00000270: 6dec 2bbd 1599 81bd 27b7 9abd a69d d63c
00000280: cc05 9fb9 011f 333d 1ff5 383a c3e4 3abd
00000290: fa76 413d 8977 a73d a362 2abd a716 453d
000002a0: 1ca7 1dbd 4551 173d e52c a5bd 84a5 8a3d
000002b0: e49d 913d e77f a2ba c7d2 9dbd 7ab6 a23d
000002c0: c96d a13b 16bd 8a3d a559 a1bd 0a9a 133d
000002d0: 4355 1b3d 1e56 ebbb 9c90 563d 82b3 babd
000002e0: d540 bd3c 3520 b9bb dc76 d9bb 62ec dabb
000002f0: 0917 bdbd 6181 013d ed42 68bd 5b01 b43d
00000300: b327 f0b9 c2b1 8f3d 5e39 50bd f5a0 b3bd
00000310: be18 2e3d fb43 82bd 0c30 223d bdb7 843d
00000320: 5d6a a1bd dee6 5ebd a7f9 013d 68ac 093d
00000330: 1e92 1bbc 95dd 40bd 2c8a 95bd efb3 1cbd
00000340: 38ed 23bd 4df3 a33c 1711 53bd 45c1 aebd
00000350: d1e5 ecbb 6255 323d 2e2a 76bd 558d 2bbd
00000360: cbbe 6cbb d3ec 83bb 3694 763d 7f95 803d
00000370: 8ade 71bd 8212 b5bb f71d acbd f458 6dbd
00000380: 0fdc 3cbe 0b14 423f f3a1 8e3e 49b3 ce3d
00000390: 19aa d0bd 7891 05bf c247 233f 1121 1abf
000003a0: 9d84 debe 4659 373f f846 853d 0d3d 23be
000003b0: c5cb 213f b91d 983d 8756 c03e e8f5 c9be
000003c0: 7a88 a6bd 1a51 0a3f 55f0 e73e 110f 2a3f
000003d0: ea8b 1b3f 4c47 24bf d7ac 93be 6452 bebd
000003e0: 3edb 0e3f c447 bbbd fc58 0d3f a791 74be
000003f0: 58ef 123f 8ae2 823e 78e7 c53e f529 dabe

l1.bias f4 [8]
0.44026828 -0.06884404 0.54728717 0.7922001 0.9542819 0.6842623 0.8981957 0.81501496
00000000: d86a e13e 1bfe 8cbd 031b 0c3f a0cd 4a3f
00000010: d24b 743f d02b 2f3f 27f0 653f d2a4 503f

l2.weight f4 [8, 8]
1.2025899 -0.016019048 -0.37187028 0.07835209 0.7688226 -0.65044516 -1.4303751 0.28164077
-0.1453654 0.03197424 -0.048052505 -0.0631621 -0.13078247 -0.031493682 -0.2720305 0.18444148
-0.16802432 0.18925835 -0.32018846 0.21340331 -0.1501119 -0.0034782952 0.038761444 -0.05380357
-0.24342072 0.24710453 -1.2885543 0.5218844 1.9571671 -0.5256629 0.9214424 0.88646924
1.4964502 -0.10972209 -0.6129078 1.0066315 0.22548115 -0.5883218 -0.7642447 0.778711
-0.44394347 0.33543226 -0.1933434 1.4385611 0.19278449 1.6149967 1.3520391 1.392595
0.8065474 -0.008367473 -0.34807312 0.8352823 0.57870734 -0.8516445 -0.79739606 0.9513622
-0.4414826 -0.295398 1.9616156 0.7900982 0.8748936 -0.63319725 -1.2037628 0.8585144
00000000: 77ee 993f 613a 83bc c865 bebe 1077 a03d
00000010: 8fd1 443f 9383 26bf 8816 b7bf 3833 903e
00000020: abda 14be 6cf7 023d b4d2 44bd 225b 81bd
00000030: d7eb 05be 85ff 00bd 9547 8bbe 3ade 3c3e
00000040: 910e 2cbe f1cc 413e beef a3be 6686 5a3e
00000050: efb6 19be 1cf4 63bb 52c4 1e3d 2261 5cbd
00000060: 4843 79be f808 7d3e 59ef a4bf 379a 053f
00000070: 7484 fa3f d891 06bf a6e3 6b3f a6ef 623f
00000080: ae8b bf3f fab5 e0bd 87e7 1cbf 4dd9 803f
00000090: 88e4 663e 429c 16bf 8aa5 43bf 9b59 473f
000000a0: 8f4c e3be c7bd ab3e d0fb 45be c522 b83f
000000b0: 4c69 453e 36b8 ce3f 9e0f ad3f 8e40 b23f
000000c0: e479 4e3f ba17 09bc a436 b2be 10d5 553f
000000d0: 2a26 143f 6005 5abf 2622 4cbf 798c 733f
000000e0: 020a e2be 683e 97be 3816 fb3f e043 4a3f
000000f0: 07f9 5f3f 3719 22bf e614 9abf 9ac7 5b3f

l2.bias f4 [8]
0.31047347 -0.13610509 -0.115444556 -0.006889188 0.007803723 0.08166158 -0.24714364 0.11751276
00000000: 61f6 9e3e 225f 0bbe 326e ecbd b3be e1bb
00000010: 60b6 ff3b 303e a73d 3913 7dbe 88aa f03d

l3.weight f4 [8, 8]
-1.119649 -0.19231132 0.032570872 -0.20174292 0.028253227 -0.22014594 0.22156116 0.19698708
-0.5951599 0.06112175 0.30376637 0.4470468 0.6175033 -0.07008247 0.1831395 -1.208324
0.70858526 0.035287283 -0.08461978 0.28278917 0.3017405 -0.85332626 0.21921127 -0.08258279
-1.312797 0.14367655 -0.34613845 1.2293131 -1.4164371 0.34332746 -1.4681822 -1.5306153
-0.35573983 0.24415289 0.27901596 -1.4285468 -1.4689757 0.51984704 -1.6150272 0.063225925
1.5149406 0.11398569 -0.3346102 -1.0467424 1.0429251 -1.4930937 0.58440477 -1.3745008
0.77279377 0.039182264 -0.020265384 -0.85824364 -0.9526404 -1.2925454 -1.1016439 1.1505339
-0.6868753 -0.10597732 0.3008173 -1.8642865 -0.93365586 1.2235584 -0.799346 -2.5288525
00000000: a950 8fbf 42ed 44be 0969 053d b295 4ebe
00000010: 5073 e73c f06d 61be eee0 623e fbb6 493e
00000020: 665c 18bf cd5a 7a3d 4487 9b3e 51e3 e43e
00000030: b214 1e3f 6687 8fbd ec88 3b3e 5caa 9abf
00000040: d865 353f 6689 103d 234d adbd bec9 903e
00000050: bb7d 9a3e 9773 5abf eb78 603e 2a21 a9bd
00000060: bb09 a8bf f21f 133e 0f39 b1be 225a 9d3f
00000070: d04d b5bf 9ec8 af3e 65ed bbbf 34eb c3bf
00000080: 8823 b6be 3703 7a3e 2edb 8e3e 9fda b6bf
00000090: 6507 bcbf b214 053f 36b9 cebf 987c 813d
000000a0: 93e9 c13f 5471 e93d 0752 abbe a8fb 85bf
000000b0: 927e 853f b21d bfbf 8d9b 153f a4ef afbf
000000c0: d0d5 453f 957d 203d 9703 a6bc dbb5 5bbf
000000d0: 3ee0 73bf 2172 a5bf ab02 8dbf b244 933f
000000e0: 0fd7 2fbf a30a d9bd ba04 9a3e f1a0 eebf
000000f0: 1204 6fbf 909d 9c3f f1a1 4cbf b8d8 21c0

l3.bias f4 [8]
-0.9870562 -0.7106667 -0.94182825 0.084853046 -0.6808121 0.05940826 0.34263968 1.3324132
00000000: b7af 7cbf 41ee 35bf a81b 71bf 6fc7 ad3d
00000010: b449 2ebf 1356 733d 786e af3e 848c aa3f
